nn_branching/nn_models/cifar/expnn_53.5_rnn_32_relu.pt (torch_old, 61255 bytes, 25 tensors)

EmbedUpdates.update.inp_f.weight f4 [32, 3]
000000 a4 5f 00 00 74 41 00 00 a8 5f 00 80 20 25 00 00
       3.431e-41 2.348e-41 -3.4315e-41 1.3318e-41
000010 56 26 00 80 22 24 00 80 ba 81 00 00 c2 3b 00 80
       -1.3752e-41 -1.2962e-41 4.6537e-41 -2.1437e-41
000020 a6 81 00 80 de 33 00 00 be 30 00 80 6c 33 00 80
       -4.6509e-41 1.8606e-41 -1.7485e-41 -1.8447e-41
000030 28 a4 00 00 ac 03 00 00 2c a4 00 80 1e 99 00 00
       5.8888e-41 1.317e-42 -5.8894e-41 5.4928e-41
000040 d8 89 00 80 42 99 00 80 9a 79 00 00 82 10 00 00
       -4.9449e-41 -5.4979e-41 4.3622e-41 5.922e-42
000050 1e 79 00 80 f0 12 00 00 9a 5a 00 80 12 13 00 80
       -4.3449e-41 6.793e-42 -3.2502e-41 -6.841e-42
000060 8a 2c 00 00 76 ef 01 00 ac 2c 00 80 9e 7a 00 00
       1.5978e-41 1.77738e-40 -1.6025e-41 4.3987e-41
000070 02 8f 00 00 92 7a 00 80 25 b2 37 be 55 7c b4 3e
       5.1302e-41 -4.397e-41 -0.1793905 0.35251108
000080 5b b4 37 3e fc 84 00 00 c0 5b 00 00 f4 84 00 80
       0.17939894 4.7706e-41 3.2914e-41 -4.7695e-41
000090 ac 7a 00 00 fa 31 00 80 b2 7a 00 80 70 57 00 00
       4.4006e-41 -1.7928e-41 -4.4015e-41 3.1367e-41
0000a0 9e 05 00 00 2c 57 00 80 7a a6 00 00 7a 99 00 00
       2.015e-42 -3.1271e-41 5.972e-41 5.5057e-41
0000b0 76 a6 00 80 e3 a0 03 be 8e 8e 86 3e 97 9f 03 3e
       -5.9715e-41 -0.12854342 0.26280636 0.12853847
0000c0 40 9a 00 00 ec 14 00 80 42 9a 00 80 f8 97 00 00
       5.5334e-41 -7.505e-42 -5.5337e-41 5.4516e-41
0000d0 36 15 00 00 c8 97 00 80 63 39 99 be 55 2b 09 3f
       7.609e-42 -5.4449e-41 -0.29926595 0.53581744
0000e0 0e 6e 99 3e cc 9d 00 00 72 11 00 80 d8 9d 00 80
       0.29966778 5.6607e-41 -6.258e-42 -5.6624e-41
0000f0 bd 83 78 ba 6f c9 b2 3e fc 61 78 3a 58 a9 00 00
       -0.000948008 0.34919307 0.000947505 6.0749e-41
000100 f8 33 00 00 4a a9 00 80 e8 5d 00 00 f4 91 00 80
       1.8643e-41 -6.073e-41 3.3687e-41 -5.2358e-41
000110 c8 5d 00 80 14 88 00 00 ea 7d 00 80 14 88 00 80
       -3.3642e-41 4.8816e-41 -4.517e-41 -4.8816e-41
000120 0c 7e 00 00 1a 03 00 00 24 7e 00 80 35 4b 19 27
       4.5217e-41 1.113e-42 -4.5251e-41 2.1273785e-15
000130 9e ae 12 27 a8 49 19 a7 c8 a8 00 00 d0 0a 00 80
       2.035623e-15 -2.1272944e-15 6.0547e-41 -3.879e-42
000140 c2 a8 00 80 02 4e 00 00 78 0d 00 80 28 4e 00 80
       -6.0539e-41 2.7984e-41 -4.832e-42 -2.8037e-41
000150 ea 9d 00 00 58 09 00 00 ea 9d 00 80 38 79 0b 24
       5.6649e-41 3.352e-42 -5.6649e-41 3.0243497e-17
000160 04 0a 11 24 d9 79 0b a4 26 59 00 00 ce 01 00 00
       3.1450347e-17 -3.024403e-17 3.198e-41 6.47e-43
000170 da 58 00 80 96 8d 00 00 08 10 00 80 98 8d 00 80
       -3.1874e-41 5.0791e-41 -5.751e-42 -5.0794e-41

EmbedUpdates.update.inp_f.bias f4 [32]
000000 aa 5f 00 80 0c 25 00 80 a0 81 00 80 70 33 00 80
       -3.4318e-41 -1.329e-41 -4.65e-41 -1.8452e-41
000010 3c a4 00 80 2a 99 00 80 22 79 00 80 1a 13 00 80
       -5.8916e-41 -5.4945e-41 -4.3454e-41 -6.852e-42
000020 9a 2c 00 80 5e 7a 00 80 73 a6 37 3e ee 84 00 80
       -1.6e-41 -4.3897e-41 0.17934589 -4.7686e-41
000030 b2 7a 00 80 ea 56 00 80 9c 78 00 80 ac 98 03 3e
       -4.4015e-41 -3.1179e-41 -4.3266e-41 0.12851208
000040 48 9a 00 80 c4 97 00 80 fa 76 99 3e ca 9d 00 80
       -5.5346e-41 -5.4443e-41 0.29973584 -5.6604e-41
000050 a2 99 78 3a 78 a9 00 80 c4 5d 00 80 10 88 00 80
       0.00094833423 -6.0794e-41 -3.3637e-41 -4.881e-41
000060 0a 7e 00 80 8d 4a 19 a7 8e a8 00 80 32 4e 00 80
       -4.5214e-41 -2.127343e-15 -6.0466e-41 -2.8051e-41
000070 44 9d 00 80 66 79 0b a4 0e 59 00 80 92 8d 00 80
       -5.6416e-41 -3.024365e-17 -3.1947e-41 -5.0786e-41

EmbedUpdates.update.inp_f_1.weight f4 [32, 32]
000000 fc 7c 00 80 48 a1 00 00 86 9f 00 00 3e 86 00 80
       -4.4836e-41 5.7857e-41 5.7226e-41 -4.8157e-41
000010 02 20 00 80 7e 2d 00 00 1e 4d 00 00 9e 98 00 80
       -1.1482e-41 1.632e-41 2.7664e-41 -5.4749e-41
000020 34 3b 00 80 78 85 00 80 5e e8 d2 3b 9e 97 00 80
       -2.1238e-41 -4.788e-41 0.0064363917 -5.439e-41
000030 76 98 00 80 22 08 00 80 8c a6 00 80 f8 c7 9b 3b
       -5.4693e-41 -2.918e-42 -5.9746e-41 0.0047540627
000040 30 14 00 80 a0 9b 00 80 fe 7b 11 3c 72 43 00 80
       -7.242e-42 -5.5828e-41 0.00887966 -2.4195e-41
000050 f9 49 66 ba 42 af 00 00 7e 56 00 00 0a 15 00 80
       -0.00087848265 6.287e-41 3.1028e-41 -7.547e-42
000060 22 a9 00 80 5c 55 45 a3 d4 46 00 80 d2 90 00 80
       -6.0673e-41 -1.0697467e-17 -2.5408e-41 -5.1952e-41
000070 da a6 00 00 e8 d8 e9 1f 7c 2c 00 80 58 02 00 80
       5.9855e-41 9.903818e-20 -1.5958e-41 -8.41e-43
000080 dc 16 00 80 20 93 00 00 e8 6f 00 00 56 2f 00 00
       -8.2e-42 5.2779e-41 4.0144e-41 1.6981e-41
000090 cc 89 00 00 16 36 00 00 8e a2 00 80 de 23 00 80
       4.9432e-41 1.9402e-41 -5.8314e-41 -1.2867e-41
0000a0 5e ed 00 80 0a 3f 00 80 19 a3 90 3d c8 b3 00 80
       -8.5151e-41 -2.2614e-41 0.070623584 -6.4493e-41
0000b0 da 81 00 00 4e 80 00 00 78 5c 00 80 04 2b f5 3c
       4.6582e-41 4.6027e-41 -3.3172e-41 0.029927738
0000c0 58 89 00 80 f8 85 00 80 21 21 1f 3e c0 52 00 00
       -4.927e-41 -4.8059e-41 0.15539981 2.9685e-41
0000d0 99 0e 14 bc 18 8f 00 00 ea 5f 00 00 d6 4e 00 00
       -0.0090366835 5.1332e-41 3.4407e-41 2.8281e-41
0000e0 1e 2c 00 00 55 b0 0a a6 90 70 00 00 96 a2 00 00
       1.5826e-41 -4.811734e-16 4.038e-41 5.8325e-41
0000f0 c6 2f 00 80 99 ed 4b a3 7e 8b 00 00 da 47 00 00
       -1.7138e-41 -1.1054965e-17 5.004e-41 2.5775e-41
000100 2a 60 00 00 80 3a 00 80 26 6c 00 00 2a 89 00 80
       3.4497e-41 -2.0986e-41 3.8796e-41 -4.9205e-41
000110 50 70 00 80 e0 21 00 00 76 7f 00 80 78 4c 00 00
       -4.029e-41 1.2152e-41 -4.5724e-41 2.7432e-41
000120 6e 44 00 00 cc 72 00 80 12 27 d7 bc ea 4d 00 00
       2.4548e-41 -4.1181e-41 -0.026263747 2.795e-41
000130 c6 4f 00 80 e6 30 00 80 90 83 00 00 cc cd ac bc
       -2.8617e-41 -1.7541e-41 4.7196e-41 -0.021094225
000140 6c 8a 00 80 00 0a 00 00 eb d1 10 bd 1e 31 00 00
       -4.9656e-41 3.587e-42 -0.035356443 1.762e-41
000150 d6 8c 0b 3a 90 55 00 80 1a 3f 00 80 24 52 00 00
       0.00053234154 -3.0694e-41 -2.2637e-41 2.9467e-41
000160 c6 35 00 00 66 40 00 26 a2 13 00 00 de 36 00 00
       1.929e-41 4.4496197e-16 7.043e-42 1.9683e-41
000170 e2 10 00 00 d1 22 5d 21 98 08 00 80 16 98 00 00
       6.056e-42 7.492379e-19 -3.083e-42 5.4558e-41
000180 b8 a2 00 00 5e 4b 00 00 78 8f 00 80 5e 86 00 80
       5.8372e-41 2.7037e-41 -5.1467e-41 -4.8202e-41
000190 06 6d 00 00 bc 14 00 80 da a5 00 00 b4 65 00 00
       3.911e-41 -7.438e-42 5.9496e-41 3.6484e-41
0001a0 ec 6c 00 80 84 68 00 80 11 8c 5c 3b 74 4d 00 80
       -3.9074e-41 -3.7493e-41 0.0033652822 -2.7785e-41
0001b0 a2 09 00 80 dc a8 00 00 64 1d 00 00 25 d2 0a 3b
       -3.456e-42 6.0575e-41 1.0543e-41 0.0021182385
0001c0 dc 80 00 00 dc a5 00 00 2e 04 8b 3b 98 0a 00 00
       4.6226e-41 5.9499e-41 0.0042424416 3.8e-42
0001d0 41 ab 00 3b 5c 08 00 80 6a 48 00 80 16 79 00 00
       0.0019633325 -2.999e-42 -2.5977e-41 4.3437e-41
0001e0 4e aa 00 00 bc ef 53 23 0e 14 00 80 ec 55 00 80
       6.1094e-41 1.1489099e-17 -7.194e-42 -3.0823e-41
0001f0 8a 1c 00 00 ee 73 52 20 d4 7e 00 00 c4 1d 00 80
       1.0238e-41 1.782605e-19 4.5497e-41 -1.0678e-41
000200 24 0f 00 80 a2 29 00 00 3a a7 00 80 14 0c 00 80
       -5.431e-42 1.4935e-41 -5.999e-41 -4.333e-42
000210 80 32 00 00 1c 0c 00 80 9c 75 00 80 10 ab 00 00
       1.8116e-41 -4.344e-42 -4.219e-41 6.1366e-41
000220 3a 03 00 00 7c a5 00 00 db 4d 39 ba 82 82 00 80
       1.157e-42 5.9365e-41 -0.00070687913 -4.6817e-41
000230 32 7f 00 00 86 00 00 80 8a 15 00 00 63 04 98 36
       4.5629e-41 -1.88e-43 7.727e-42 4.5304637e-06
000240 82 25 00 00 2e 2f 00 80 6e 58 f8 ba d6 0d 00 00
       1.3455e-41 -1.6925e-41 -0.0018947253 4.963e-42
000250 27 ee 98 ba 3a 45 00 00 98 52 00 80 d4 80 00 00
       -0.0011667655 2.4834e-41 -2.9629e-41 4.6215e-41
000260 50 62 00 80 c1 18 96 a1 42 24 00 00 5a 46 00 00
       -3.5268e-41 -1.0170948e-18 1.3007e-41 2.5237e-41
000270 78 78 00 00 70 5d 77 1f ac 41 00 00 fc 5f 00 00
       4.3216e-41 5.2381574e-20 2.3559e-41 3.4433e-41
000280 1c 2e 00 80 78 21 00 80 a8 0e 00 80 62 38 00 00
       -1.6541e-41 -1.2006e-41 -5.258e-42 2.0226e-41
000290 d2 6f 00 00 f8 8f 00 80 f8 0f 00 00 3e 7b 00 80
       4.0114e-41 -5.1646e-41 5.729e-42 -4.4211e-41
0002a0 50 09 00 00 c8 1e 00 00 90 c3 be bb d2 34 00 80
       3.34e-42 1.1042e-41 -0.0058216527 -1.8948e-41
0002b0 ba 51 00 80 94 75 00 80 18 97 00 80 0c 4a 94 bb
       -2.9318e-41 -4.2179e-41 -5.4202e-41 -0.0045254286
0002c0 ce 8e 00 00 92 35 00 00 9f 43 08 bc 14 46 00 00
       5.1229e-41 1.9217e-41 -0.008316903 2.5139e-41
0002d0 a9 10 31 3b ea 53 00 80 84 aa 00 80 c4 46 00 00
       0.0027017987 -3.0103e-41 -6.117e-41 2.5386e-41
0002e0 a0 92 00 00 4a d5 53 a4 c0 42 00 00 54 0e 00 80
       5.2599e-41 -4.5933995e-17 2.3945e-41 -5.14e-42
0002f0 04 04 00 80 60 6e 1a 1f 54 8f 00 80 10 5e 00 80
       -1.44e-42 3.270207e-20 -5.1416e-41 -3.3743e-41
000300 32 4b 00 00 00 7d 00 80 5c 22 00 80 dc 85 00 80
       2.6975e-41 -4.4842e-41 -1.2326e-41 -4.802e-41
000310 4a 31 00 00 e2 1a 00 00 e4 32 00 00 e4 28 00 80
       1.7682e-41 9.644e-42 1.8256e-41 -1.4669e-41
000320 e8 13 00 80 18 69 00 00 c9 a6 ac 3b 80 0f 00 80
       -7.141e-42 3.77e-41 0.005268906 -5.56e-42
000330 ba 1e 00 80 96 6c 00 80 6a 08 00 00 ad 5a 70 3b
       -1.1023e-41 -3.8953e-41 3.018e-42 0.003667514
000340 d0 a0 00 00 68 12 00 00 75 e6 f7 3b b8 01 00 80
       5.7689e-41 6.603e-42 0.0075653144 -6.17e-43
000350 b9 04 10 3a 52 5c 00 00 d8 55 00 00 d0 0a 00 00
       0.0005493868 3.3118e-41 3.0795e-41 3.879e-42
000360 96 6b 00 00 02 bd 33 24 1a 2d 00 80 e6 64 00 80
       3.8595e-41 3.8974534e-17 -1.618e-41 -3.6196e-41
000370 58 14 00 00 1f 74 35 a0 a0 4b 00 00 c0 69 00 80
       7.298e-42 -1.5369718e-19 2.7129e-41 -3.7936e-41
000380 c2 28 00 80 9e 4e 00 80 44 2c 00 80 82 2b 00 00
       -1.4621e-41 -2.8203e-41 -1.588e-41 1.5608e-41
000390 fc 3f 00 00 92 86 00 00 fc 7a 00 80 6a 08 00 80
       2.2953e-41 4.8275e-41 -4.4118e-41 -3.018e-42
0003a0 98 6b 00 80 9e 8d 00 00 3d 69 92 3e 9c 9a 00 80
       -3.8597e-41 5.0803e-41 0.28595915 -5.5463e-41
0003b0 62 59 00 00 ba 6f 00 00 5c 49 00 80 39 bc 55 3e
       3.2065e-41 4.008e-41 -2.6316e-41 0.20872582
0003c0 42 71 00 80 20 9e 00 00 65 68 e6 3e bc 52 00 00
       -4.0629e-41 5.6725e-41 0.45001522 2.968e-41
0003d0 76 91 6d 3e 48 91 00 80 78 15 00 00 6c a2 00 00
       0.2320002 -5.2117e-41 7.702e-42 5.8266e-41
0003e0 f8 ad 00 80 30 bb a2 26 62 2a 00 00 42 52 00 80
       -6.2408e-41 1.1291745e-15 1.5204e-41 -2.9509e-41
0003f0 08 31 00 80 10 69 0a 24 78 68 00 00 74 0c 00 80
       -1.7589e-41 3.001297e-17 3.7476e-41 -4.467e-42

EmbedUpdates.update.inp_f_1.bias f4 [32]
000000 e2 72 ed ba 09 e7 2b 3e 67 16 cd bc df 03 20 bc
       -0.0018115903 0.16787352 -0.025035096 -0.009766548
000010 07 9f 38 3c ca 3d e7 bb f2 c0 c9 bb 1f 8a 6c bd
       0.011268384 -0.0070569264 -0.006157034 -0.05774891
000020 84 81 4e bc bf 31 5c bb 63 4a 97 bb 72 64 d7 3d
       -0.012604121 -0.0033598987 -0.004617022 0.10517205
000030 fb 5b c2 bb fd 52 86 bb cf 3f 0e 3b 26 81 be bb
       -0.005931375 -0.0040992484 0.0021705513 -0.0058137355
000040 8c 56 9f b9 94 ae 1b 3c a9 48 ae bb e5 60 1d be
       -0.00030391326 0.009502072 -0.0053187204 -0.15368994
000050 47 9a 62 bd 10 6d 41 bc 63 ab 85 3b 33 a6 9f 3c
       -0.05532291 -0.011805788 0.004079269 0.01948843
000060 b0 fd c8 3b f4 f0 15 be e0 5b 1f bb 54 4f ac 3c
       0.0061337575 -0.14642698 -0.0024316236 0.02103392
000070 40 91 26 3d 15 aa cf 3b 35 60 a1 b9 91 75 67 bb
       0.040665865 0.006337414 -0.00030779993 -0.0035317878

EmbedUpdates.update.fc1.weight f4 [32, 6]
000000 42 b7 93 be 63 47 dd 3e 13 9d 62 3e d1 38 6e 3e
       -0.28850752 0.43218526 0.22130232 0.23263861
000010 0c 4f 4d be 4b a7 22 be 0a 8d 00 80 6c 12 00 80
       -0.20049685 -0.1588413 -5.0595e-41 -6.609e-42
000020 14 6c 00 80 70 ae 00 00 5a aa 00 80 9c 4e 00 80
       -3.8771e-41 6.2576e-41 -6.111e-41 -2.82e-41
000030 51 b0 fc 01 bd af 2b 04 1a c8 59 83 07 97 b6 01
       9.282318e-38 2.0181648e-36 -6.4000274e-37 6.7072955e-38
000040 02 d9 a8 80 15 b0 86 02 b3 9b 75 a1 72 c8 d4 24
       -1.5506211e-38 1.9790597e-37 -8.3215295e-19 9.227991e-17
000050 f3 d4 e9 a3 45 7b 80 1e 5d d9 30 20 e8 a6 e1 1f
       -2.5352098e-17 1.360351e-20 1.4979699e-19 9.556733e-20
000060 46 dc 41 3e 92 13 df 3d cb 70 c0 bd 53 36 2b 3e
       0.18931684 0.108924046 -0.093965136 0.16719942
000070 89 b0 c7 bd 3c 11 3c bf c2 4f 00 00 de 9f 00 00
       -0.09750468 -0.734638 2.8612e-41 5.735e-41
000080 26 63 00 80 cc 7d 00 80 d2 7a 00 00 9e 3f 00 80
       -3.5568e-41 -4.5127e-41 4.406e-41 -2.2822e-41
000090 2d 27 85 a4 b0 dc 12 25 45 84 b8 23 d7 09 a8 a2
       -5.774592e-17 1.2738253e-16 2.0005338e-17 -4.554691e-18
0000a0 a2 cd 6d 22 bf 8c c6 a2 a0 92 9d 3e 86 70 12 bc
       3.222835e-18 -5.381703e-18 0.30775928 -0.0089379605
0000b0 01 82 c8 bd f6 6d 9b 3e 39 b8 95 bf 6a ce cf 3d
       -0.09790421 0.3035733 -1.1696845 0.10146792
0000c0 af 28 f7 86 82 4e 4a 07 fd 82 7c 87 ed bd d8 02
       -9.297085e-35 1.5219862e-34 -1.8996867e-34 3.184736e-37
0000d0 d2 ab d1 01 69 40 08 06 44 ad 02 80 ce 9c 02 00
       7.7021025e-38 2.5626078e-35 -2.45827e-40 2.39922e-40
0000e0 a6 e5 07 80 c2 18 00 80 0c 50 00 00 e4 34 00 80
       -7.25231e-40 -8.881e-42 2.8715e-41 -1.8974e-41
0000f0 a2 ab 00 80 ca 80 00 00 60 0d 01 80 06 ab 00 80
       -6.157e-41 4.6201e-41 -9.6634e-41 -6.1352e-41
000100 8c a3 00 00 e6 2b 00 00 14 5f 00 80 44 84 00 00
       5.867e-41 1.5748e-41 -3.4108e-41 4.7448e-41
000110 20 6e 00 80 34 27 00 80 a4 0a 00 00 92 2d 00 00
       -3.9505e-41 -1.4063e-41 3.817e-42 1.6348e-41
000120 a6 92 0f 80 7c 30 24 00 36 e4 08 00 28 7e 05 80
       -1.43014e-39 3.323471e-39 8.1655e-40 -5.04434e-40
000130 82 5e 05 00 c8 9c 01 80 a2 ac 00 80 92 5f 00 00
       4.9308e-40 -1.48078e-40 -6.1929e-41 3.4284e-41
000140 da 42 00 80 da 8e 00 80 1c 80 00 00 16 4f 00 80
       -2.3982e-41 -5.1245e-41 4.5957e-41 -2.837e-41
000150 96 d3 36 83 aa 4a 81 03 23 65 e0 01 72 a7 98 82
       -5.372788e-37 7.599081e-37 8.242973e-38 -2.2430502e-37
000160 0d 55 92 02 b5 e0 93 82 03 e1 97 3e 0c 29 bc 3e
       2.1501589e-37 -2.1728684e-37 0.29663858 0.36750066
000170 03 cc 2f be 39 2f 95 3e 1e fb ef bd 74 92 e1 3e
       -0.17167668 0.2913759 -0.11717819 0.44057047
000180 f1 64 72 ab 57 b6 a2 2c c9 0a f3 ac f4 a5 5b a9
       -8.6115755e-13 4.6245607e-12 -6.907673e-12 -4.877171e-14
000190 27 9a 51 a8 16 ff 2a 2a 8c 69 79 00 3e 40 a3 02
       -1.1635257e-14 1.5187534e-13 1.1149958e-38 2.398757e-37
0001a0 a4 80 ce 81 d6 c5 56 00 92 bb 13 80 72 49 07 01
       -7.585704e-38 7.968823e-39 -1.812162e-39 2.4848278e-38
0001b0 83 cf b3 be cd 4f 2b be 25 bb c3 3d c8 98 9d 3e
       -0.35119256 -0.1672966 0.09557179 0.30780625
0001c0 cc c5 0a 40 2f 36 0c 3d 52 46 00 00 06 0d 00 00
       2.1683226 0.03423136 2.5226e-41 4.672e-42
0001d0 14 56 00 80 56 53 00 00 52 3e 00 80 a0 55 00 80
       -3.0879e-41 2.9895e-41 -2.2356e-41 -3.0716e-41
0001e0 d0 41 d5 bc 73 3f af bc 17 f7 b2 3b 3b 1c 91 3e
       -0.026032358 -0.02139256 0.0054615843 0.2834185
0001f0 27 50 5a c0 63 e8 0b 3c ce 2a 5a be 22 d4 05 bd
       -3.411142 0.008539292 -0.21305391 -0.03267301
000200 dd 5e 96 be 28 8b 83 bc 0e 6e a0 bd a3 11 5c 3e
       -0.2936925 -0.016057566 -0.07833491 0.21491103
000210 62 65 00 00 ee 6b 00 00 50 8b 00 80 84 5f 00 00
       3.637e-41 3.8718e-41 -4.9976e-41 3.4265e-41
000220 1e 0a 00 00 36 1c 00 80 cf c2 a8 be fa bb bd 3e
       3.63e-42 -1.012e-41 -0.32961127 0.37057477
000230 ac dd 87 3d 39 e0 8d be 39 b2 98 3e 54 e1 91 3c
       0.066340774 -0.2771013 0.29823473 0.01780764
000240 96 8c 04 80 56 62 13 00 22 ab 0e 80 3c aa 00 00
       -4.17775e-40 1.780151e-39 -1.347088e-39 6.1069e-41
000250 ca 82 00 80 92 69 01 80 0c ae 96 03 c1 ca 48 05
       -4.6918e-41 -1.29707e-40 8.856167e-37 9.441195e-36
000260 85 b1 92 85 32 57 46 80 20 da 9f 03 f4 23 b8 00
       -1.3794984e-35 -6.459765e-39 9.395259e-37 1.6910629e-38
000270 b0 32 65 be 94 b7 eb bd 9f 25 66 3e cc 9d 49 bd
       -0.22382617 -0.11509624 0.22475289 -0.049222752
000280 8a 8d 92 bd 61 d3 7b be 5a 04 00 00 dc 44 00 00
       -0.07155903 -0.24592353 1.561e-42 2.4702e-41
000290 94 45 00 80 5c 82 00 80 08 83 00 00 44 1b 00 80
       -2.496e-41 -4.6764e-41 4.7005e-41 -9.781e-42
0002a0 be 4e 16 80 80 b1 12 80 a2 fc 1e 80 84 06 00 80
       -2.048628e-39 -1.716714e-39 -2.845692e-39 -2.337e-42
0002b0 d0 0d 00 00 e8 9c 10 00 31 28 72 3d 4f d9 20 be
       4.955e-42 1.525655e-39 0.05912036 -0.15707897
0002c0 5c d9 d5 bd a6 62 b1 3b 1a eb 60 be 1c f9 27 3e
       -0.10441849 0.005413371 -0.21964684 0.16403621
0002d0 1c 1c 00 80 4c 88 00 00 06 1a 00 80 e0 9c 00 00
       -1.0084e-41 4.8894e-41 -9.335e-42 5.6276e-41
0002e0 54 8a 00 80 56 85 00 80 28 e3 ca be e5 e3 84 3e
       -4.9623e-41 -4.7832e-41 -0.3962643 0.2595512
0002f0 04 aa a3 be 65 4d 02 be 60 01 62 bd 57 4a 89 be
       -0.3196565 -0.12724836 -0.055177093 -0.2681453

EmbedUpdates.update.fc1.bias f4 [32]
000000 c9 55 14 3e 8e a0 00 80 42 44 41 83 1c 44 9c a3
       0.1448585 -5.7596e-41 -5.679596e-37 -1.69424e-17
000010 e0 3a 1c 3e 2a ce 01 80 94 5d 6e a5 00 f8 39 3b
       0.15256834 -1.65793e-40 -2.0674915e-16 0.002837658
000020 74 67 97 87 ca 5b 19 80 ba c4 00 80 78 98 00 80
       -2.278076e-34 -2.328815e-39 -7.0572e-41 -5.4695e-41
000030 56 3e 5b 80 66 01 00 00 9f 46 a2 83 61 78 c5 3e
       -8.379392e-39 5.02e-43 -9.537718e-37 0.38568404
000040 20 7f 1b ac 51 64 b6 81 40 3a 9b bc fe af 00 80
       -2.2097393e-12 -6.700019e-38 -0.018948674 -6.3134e-41
000050 52 b1 49 3d ad 84 c2 3d 66 36 00 80 ba 61 2b bd
       0.04924137 0.09497962 -1.9514e-41 -0.041841246
000060 54 e0 05 80 f9 20 32 02 85 f1 22 be 04 60 00 80
       -5.39651e-40 1.3086837e-37 -0.15912445 -3.4444e-41
000070 ec 7e af 80 e6 e8 06 bf b0 3a 00 80 a4 a5 00 3f
       -1.6116743e-38 -0.52699125 -2.1053e-41 0.5025275

EmbedUpdates.update.fc1_1.weight f4 [32, 32]
000000 ac 1e 2e bd 0e 6a 00 80 ab dc e9 02 48 09 7b a2
       -0.04250972 -3.8045e-41 3.436293e-37 -3.4021757e-18
000010 70 c5 b8 bd 82 af 00 80 a0 db 94 23 57 d9 17 be
       -0.09022033 -6.296e-41 1.6139207e-17 -0.14829002
000020 a2 65 62 06 3a a6 00 00 e0 6b 00 00 26 99 00 80
       4.2580544e-35 5.9631e-41 3.8698e-41 -5.494e-41
000030 1e 1b 02 80 60 89 00 00 92 c4 f9 81 f9 d9 02 bd
       -1.93399e-40 4.9281e-41 -9.175022e-38 -0.031946156
000040 33 c2 44 29 75 cf 5e 01 74 c1 50 3e 8e 96 00 00
       4.3689184e-14 4.0923803e-38 0.20386297 5.4009e-41
000050 ce 71 18 bf 1f e2 82 bd 30 61 00 00 03 eb f1 bd
       -0.5954865 -0.063907854 3.4864e-41 -0.11812403
000060 82 13 03 80 00 ab 0a 82 45 3e 3e be f2 88 00 80
       -2.82505e-40 -1.0187713e-37 -0.18578441 -4.9127e-41
000070 40 67 0d 00 ca 65 02 bd 04 34 00 80 5f c9 48 bd
       1.2309e-39 -0.031835355 -1.866e-41 -0.049020167
000080 a1 36 19 be 22 27 00 80 2d 67 0b 02 2a 4f 2d a2
       -0.14962246 -1.4038e-41 1.0241717e-37 -2.3487781e-18
000090 45 4b 43 3e a4 08 00 00 23 8d b8 23 90 3c 5c 3c
       0.19071682 3.1e-42 2.0009094e-17 0.013442174
0000a0 9c 4e 8c 06 b0 a4 00 80 24 39 00 80 70 29 00 00
       5.2777653e-35 -5.9079e-41 -2.0498e-41 1.4865e-41
0000b0 64 8c 05 80 e4 0e 00 80 2f 13 80 82 8f d9 74 3d
       -5.0954e-40 -5.342e-42 -1.881892e-37 0.059777793
0000c0 83 08 41 2a 0c 65 87 00 19 ef 31 3d 2a 2f 00 00
       1.7144797e-13 1.2434041e-38 0.043440912 1.6919e-41
0000d0 e6 39 b7 bf 3d e0 00 be 50 67 00 00 17 c8 94 be
       -1.4314544 -0.1258554 3.7062e-41 -0.29058906
0000e0 da f7 05 80 c5 e7 cb 82 72 45 c8 bd 06 1f 00 80
       -5.4809e-40 -2.9961198e-37 -0.09778871 -1.1129e-41
0000f0 ba cd 0d 00 28 1f 57 3d b0 2a 00 80 aa 48 8b 3e
       1.267662e-39 0.052519947 -1.5313e-41 0.27203876
000100 cc 2a 42 3e cc a8 00 00 06 c4 2b 83 e4 cd df 21
       0.18961638 6.0553e-41 -5.0477407e-37 1.5165567e-18
000110 64 bf 83 3e 9a 5d 00 00 a4 b7 be 21 da c3 2d 3e
       0.25731957 3.3578e-41 1.292351e-18 0.16969243
000120 5b 9d ec 85 6a 08 00 80 d0 4c 00 80 82 7b 00 00
       -2.2251137e-35 -3.018e-42 -2.7555e-41 4.4306e-41
000130 fa 46 00 80 2e 93 00 80 b9 26 dc 81 90 59 a0 bd
       -2.5462e-41 -5.2798e-41 -8.08708e-38 -0.07829583
000140 7a cc 30 aa 69 2b a3 81 5a bc ad 3d c6 08 00 00
       -1.5702882e-13 -5.9939034e-38 0.08483191 3.147e-42
000150 01 36 a3 bd f4 51 13 3d fa 26 00 00 35 30 4a 3c
       -0.07969285 0.03596683 1.3982e-41 0.012340595
000160 46 e1 01 80 2a 3c ee 80 c1 65 9f 3e b6 6d 00 80
       -1.72648e-40 -2.1878431e-38 0.3113232 -3.9357e-41
000170 8a 59 00 80 92 b1 47 3d 74 ac 00 00 6a c3 b5 3e
       -3.212e-41 0.04875333 6.1865e-41 0.35500652
000180 34 e8 43 bb e0 2f 00 00 89 0d 03 81 8f 78 bb 9e
       -0.0029893043 1.7174e-41 -2.407061e-38 -1.9849257e-20
000190 9d 4b 94 ba ee 35 00 80 61 9c 55 a0 6c 9e 84 3b
       -0.0011314038 -1.9346e-41 -1.8093543e-19 0.0040472057
0001a0 e5 27 15 83 ce 82 00 80 2c 46 00 00 2a 08 00 80
       -4.383296e-37 -4.6924e-41 2.5173e-41 -2.929e-42
0001b0 50 78 00 00 be 2a 00 80 70 c2 8a 01 1f b3 74 3a
       4.316e-41 -1.5333e-41 5.09722e-38 0.00093345525
0001c0 41 f7 11 a8 cc aa 1e 80 f3 a3 b2 bb 38 33 00 00
       -8.1027316e-15 -2.816335e-39 -0.005451673 1.8374e-41
0001d0 51 a6 f6 39 fa 7b ff bb 18 72 00 80 41 78 dc b9
       0.00047044692 -0.0077967616 -4.0929e-41 -0.00042051266
0001e0 12 67 00 00 c8 ba 93 00 bd 72 23 bb e0 8d 00 00
       3.6975e-41 1.3566822e-38 -0.0024940216 5.0895e-41
0001f0 fa 94 00 80 c3 27 44 3c ec 67 00 80 ec ae ee 3b
       -5.3443e-41 0.011972371 -3.728e-41 0.007284036
000200 c4 5e cc 3b 2e 0c 00 80 8e 3d 65 00 34 25 0b 9e
       0.006236883 -4.369e-42 9.297467e-39 -7.366292e-21
000210 a1 fc 20 3b 62 74 00 80 63 b9 82 a0 56 aa 84 bb
       0.002456464 -4.175e-41 -2.2145535e-19 -0.004048626
000220 cb 5d 8e 03 64 55 00 00 ba ac 00 00 74 81 00 00
       8.367544e-37 3.0632e-41 6.1963e-41 4.6439e-41
000230 ea 0b 00 80 f6 29 00 80 9e 44 3e 80 b5 c5 9d ba
       -4.274e-42 -1.5053e-41 -5.718416e-39 -0.0012037071
000240 98 0b f9 a6 e0 64 0b 00 90 83 64 3b 3e 3b 00 00
       -1.7280988e-15 1.046378e-39 0.0034868456 2.1252e-41
000250 f8 15 97 bb 69 41 00 3c be 4a 00 00 1e 06 78 38
       -0.004610773 0.007828095 2.6812e-41 5.9133505e-05
000260 5e 4e 00 80 08 e7 02 80 61 de 63 bb c0 38 00 80
       -2.8113e-41 -2.6655e-40 -0.003477 -2.0358e-41
000270 e0 3c 00 00 cb fd 08 bc b2 56 00 80 27 ba dc bb
       2.1838e-41 -0.00836129 -3.11e-41 -0.0067360583
000280 dc bb b6 be f8 02 00 80 90 33 59 80 d3 7a c3 22
       -0.356902 -1.065e-42 -8.191856e-39 5.29849e-18
000290 0b ad b9 3e 88 5a 00 00 9b ea 17 24 72 58 be 3d
       0.36264834 3.2476e-41 3.2941624e-17 0.09294213
0002a0 e0 23 fe 84 26 95 00 80 2e 49 00 80 72 77 00 80
       -5.974806e-36 -5.3504e-41 -2.6252e-41 -4.2849e-41
0002b0 ca 67 00 80 f8 81 00 80 29 3c c3 82 42 ba f4 3c
       -3.7233e-41 -4.6624e-41 -2.8687205e-37 0.02987397
0002c0 e5 bc 12 ab 0c e6 08 80 3b 89 a2 be ea 44 00 00
       -5.2131764e-13 -8.17209e-40 -0.31745324 2.4722e-41
0002d0 1d 8e 2c bf c3 58 58 be 9e 35 00 80 1f 89 5c be
       -0.6740435 -0.2112761 -1.9234e-41 -0.21536683
0002e0 cc d3 01 80 d0 e7 5f 82 9b 4e 2e 3d e2 74 00 00
       -1.67814e-40 -1.6449979e-37 0.042555433 4.193e-41
0002f0 1e d9 04 80 f4 16 d2 3d a2 21 00 00 5a e0 1a be
       -4.45229e-40 0.10258284 1.2065e-41 -0.15124646
000300 64 48 e7 3a 20 36 00 80 1c a3 23 00 66 e8 e5 1d
       0.0017645475 -1.9416e-41 3.272755e-39 6.085609e-21
000310 2b 82 96 ba 24 75 00 80 58 6e d9 9d 00 1e 9c ba
       -0.0011482885 -4.2022e-41 -5.7553514e-21 -0.0011910796
000320 a8 2b df 81 dc 5d 00 80 d8 28 00 80 e6 06 00 80
       -8.1979906e-38 -3.367e-41 -1.4652e-41 -2.475e-42
000330 f0 1f 00 80 94 58 00 00 76 e7 32 00 2c 59 94 3b
       -1.1457e-41 3.1776e-41 4.674807e-39 0.0045272317
000340 23 8c 38 28 fc 79 03 00 9d a4 67 3b d6 01 00 80
       1.0244439e-14 3.19266e-40 0.003534592 -6.59e-43
000350 05 76 f7 39 2a 03 97 3b 42 03 00 00 79 10 fe 3a
       0.00047199443 0.0046085315 1.169e-42 0.0019383571
000360 26 50 00 80 f0 35 01 80 23 ed b6 3b 90 70 00 80
       -2.8752e-41 -1.11185e-40 0.005582468 -4.038e-41
000370 7e 26 00 00 ca 10 20 bc 3a 8f 00 80 6a ac cd bb
       1.3808e-41 -0.009769628 -5.138e-41 -0.006276657
000380 cc f5 cc 3b 68 0d 00 80 24 4f 66 00 03 ed 14 9e
       0.006254887 -4.809e-42 9.395611e-39 -7.884068e-21
000390 f7 ea 21 3b d2 77 00 80 da 15 88 a0 68 06 86 bb
       0.00247067 -4.2983e-41 -2.3053756e-19 -0.004090119
0003a0 e1 3b 8f 03 9a 4c 00 00 b8 af 00 00 70 7f 00 00
       8.418532e-37 2.748e-41 6.3036e-41 4.5716e-41
0003b0 74 23 00 80 02 31 00 80 46 20 47 80 57 32 9e ba
       -1.2718e-41 -1.758e-41 -6.531898e-39 -0.0012069446
0003c0 7c fe ff a6 3c 88 0b 00 d0 cc 63 3b 94 05 00 00
       -1.7763158e-15 1.059062e-39 0.003475953 2.001e-42
0003d0 2c 77 97 bb f1 94 00 3c 1e 44 00 00 9c 38 88 38
       -0.0046223607 0.00784801 2.4436e-41 6.49553e-05
0003e0 b4 2e 00 80 76 8e 00 80 e0 08 67 bb 90 20 00 00
       -1.6754e-41 -5.1105e-41 -0.0035253093 1.1681e-41
0003f0 14 06 00 80 ed 95 08 bc 02 8b 00 80 15 a3 dc bb
       -2.18e-42 -0.008336526 -4.9867e-41 -0.006733308

EmbedUpdates.update.fc1_1.bias f4 [32]
000000 ef 97 0e 3d 59 fb d6 bb 6c 1d c8 bd 07 d9 1e bb
       0.034812864 -0.0065607247 -0.09771237 -0.0024238245
000010 7c 13 0c 3b 37 9a c8 3e 55 76 38 3a a5 e9 0b 3b
       0.0021373918 0.39180157 0.0007036676 0.002134898
000020 f7 2c 0f ba 1d 3b 0c bb c9 5b 95 bd 54 c1 1a 3b
       -0.00054617174 -0.002139754 -0.07292897 0.0023613768
000030 53 e5 f5 3a 82 d5 d4 3b 0e 42 0a 3b d8 0b 0c 3b
       0.001876036 0.0064951787 0.00210965 0.0021369364
000040 12 c6 0b bb 77 20 fc ba f7 15 f6 ba a6 f3 47 ba
       -0.0021327776 -0.001923575 -0.0018774857 -0.0007627554
000050 b4 d9 20 3b da 5b 05 3b 70 c0 c5 ba 65 43 48 bd
       0.0024543824 0.0020348937 -0.0015087258 -0.048892397
000060 d7 e4 b2 3b 64 8f 18 bb c7 a3 85 ba 27 43 79 ba
       0.0054594087 -0.0023278827 -0.0010195904 -0.00095086027
000070 58 8b ae ba 29 94 04 bb 7b 2c 1b bb c6 29 c4 3a
       -0.0013316674 -0.0020229912 -0.0023677635 0.0014966063

EmbedUpdates.update.fc3.weight f4 [32, 64]
000000 ee 45 00 80 58 0e 00 00 36 11 00 00 48 0b 00 80
       -2.5086e-41 5.146e-42 6.174e-42 -4.047e-42
000010 0c 04 00 80 b0 25 00 80 56 32 00 80 e4 18 00 80
       -1.452e-42 -1.352e-41 -1.8057e-41 -8.929e-42
000020 c2 02 00 80 36 17 00 80 16 1c 00 00 da 38 00 00
       -9.9e-43 -8.327e-42 1.0075e-41 2.0394e-41
000030 f4 04 00 80 12 5d 00 80 2c 1b 00 80 68 62 00 00
       -1.777e-42 -3.3387e-41 -9.747e-42 3.5302e-41
000040 6c 18 00 80 1c ad 00 00 74 26 00 00 92 26 00 00
       -8.761e-42 6.21e-41 1.3794e-41 1.3836e-41
000050 8c 2c 00 80 28 43 00 00 80 5f 00 00 88 42 00 80
       -1.598e-41 2.4091e-41 3.4259e-41 -2.3867e-41
000060 76 3c 00 00 38 14 00 00 62 23 00 00 ca 18 00 80
       2.1689e-41 7.253e-42 1.2693e-41 -8.893e-42
000070 6c 08 00 00 58 4d 00 80 50 41 00 80 2a 45 00 80
       3.021e-42 -2.7746e-41 -2.343e-41 -2.4811e-41
000080 78 12 00 80 06 1d 00 00 00 2e 00 00 18 23 00 00
       -6.625e-42 1.0412e-41 1.6502e-41 1.2589e-41
000090 02 38 00 00 42 42 00 80 2e 0e 00 80 be 08 00 00
       2.0092e-41 -2.3769e-41 -5.087e-42 3.136e-42
0000a0 5a a1 00 80 50 32 00 00 18 3e 00 00 fc 5c 00 00
       -5.7882e-41 1.8049e-41 2.2275e-41 3.3357e-41
0000b0 ee 35 00 00 f4 98 00 80 56 49 00 80 2e 32 00 00
       1.9346e-41 -5.4869e-41 -2.6308e-41 1.8001e-41
0000c0 aa 4c 00 80 14 86 00 80 52 2b 00 80 1e 11 00 00
       -2.7502e-41 -4.8098e-41 -1.554e-41 6.14e-42
0000d0 14 39 00 80 5a 87 00 00 e2 61 00 00 e4 2f 00 00
       -2.0476e-41 4.8555e-41 3.5114e-41 1.718e-41
0000e0 1a 9b 00 00 c2 41 00 00 e8 03 00 80 e4 20 00 00
       5.564e-41 2.359e-41 -1.401e-42 1.1799e-41
0000f0 1c 31 00 00 e2 6d 00 80 82 4f 00 00 b6 0b 00 80
       1.7617e-41 -3.9419e-41 2.8522e-41 -4.201e-42
000100 3a 91 0c bb 38 73 5f be a0 7f ef bc 93 d7 8d 39
       -0.0021448866 -0.21821296 -0.029235661 0.0002705423
000110 50 be b0 3a 93 35 4c 3b bf 97 c4 bb 79 85 9c bd
       0.0013484452 0.0031159862 -0.005999535 -0.076426454
000120 ed d6 31 bb 23 43 66 bb 1f ec 38 3b c6 40 26 be
       -0.0027136162 -0.0035135231 0.002821691 -0.16235647
000130 4d 8f 83 bb c2 00 3e 3c 24 16 de 3d 8e de 87 bb
       -0.0040148855 0.01159686 0.10844067 -0.0041464036
000140 ad c0 9b bb 12 1c b7 bb f1 ed 83 bb 94 95 6c 3c
       -0.0047531934 -0.005588063 -0.0040261676 0.014439959
000150 ac fb 51 3d f4 90 cd 3b f3 ae b6 3a 7e 9f 08 bd
       0.051265404 0.0062733833 0.0013937637 -0.03335523
000160 ca c4 c3 3b 3f 91 83 3d 8b 57 8a bb 83 9e b4 3c
       0.005974387 0.06424188 -0.0042218617 0.02204824
000170 b8 4d d7 bd a9 2b 14 bb 87 26 6a bc 6c 0b d1 39
       -0.105128706 -0.0022609031 -0.014291412 0.00039872096
000180 b8 fe 0c bc ca 94 b9 bd 7d 0a 16 bd 06 51 2f bb
       -0.008605652 -0.090615824 -0.036631096 -0.0026751175
000190 d1 d1 1c bb 60 72 f9 3b f5 2e 48 bc 73 c2 e1 3d
       -0.0023928771 0.0076125115 -0.012218227 0.11023416
0001a0 70 c0 1b 3b 70 9f 88 bb 9c ef 5c 3c da 0f 1e be
       0.0023765825 -0.004169397 0.013484862 -0.15435734
0001b0 20 4a 33 3b ab 5e 2d 3c f2 09 e2 3b c4 53 6a 3b
       0.0027357414 0.010581653 0.006898158 0.0035755495
0001c0 e0 37 0c bc 66 37 f5 bb 69 b5 3f bc 00 28 4d bd
       -0.0085582435 -0.0074834106 -0.011700966 -0.050086975
0001d0 95 aa 93 3d 8e 02 4d 3b 80 a0 ca bb a3 2f 30 be
       0.0721027 0.003128204 -0.006183684 -0.17205672
0001e0 51 3e b4 bb fe 31 b5 3b cb 5e 04 bc 32 fa a1 ba
       -0.0055005928 0.005529641 -0.008079241 -0.0012357889
0001f0 74 f8 87 bd 0b ad 1e bc c2 5d 43 bc 59 99 33 3c
       -0.066391855 -0.009684811 -0.011924209 0.010961854
000200 08 41 00 80 66 25 01 00 84 73 00 80 4e 0b 00 80
       -2.3329e-41 1.05252e-40 -4.1439e-41 -4.055e-42
000210 34 5c 00 80 c8 3d 00 80 e0 38 00 80 7c f7 01 80
       -3.3076e-41 -2.2163e-41 -2.0403e-41 -1.80616e-40
000220 f2 21 00 00 f6 37 00 00 ba 39 00 00 94 46 02 00
       1.2177e-41 2.0075e-41 2.0708e-41 2.0899e-40
000230 ce 6c 00 00 c2 2f 00 00 72 5b 04 00 9a 34 00 00
       3.9032e-41 1.7132e-41 4.00146e-40 1.887e-41
000240 3a 4b 00 80 ae 38 00 80 b0 55 00 80 e6 c5 01 80
       -2.6986e-41 -2.0333e-41 -3.0739e-41 -1.62828e-40
000250 14 08 02 80 f0 50 00 00 8e 19 00 80 70 9f 07 00
       -1.86569e-40 2.9035e-41 -9.167e-42 7.00044e-40
000260 92 39 00 80 c8 69 02 80 26 1b 00 80 42 19 01 00
       -2.0652e-41 -2.21618e-40 -9.739e-42 1.00896e-40
000270 e4 ab 00 00 f6 45 00 80 3a 38 00 80 10 40 00 00
       6.1663e-41 -2.5097e-41 -2.017e-41 2.2981e-41
000280 6e 05 00 80 3e f4 01 00 2c 15 00 80 1a 55 00 00
       -1.948e-42 1.79453e-40 -7.595e-42 3.0529e-41
000290 4c 02 00 00 a4 0c 00 80 be 03 00 80 ba 8a 01 00
       8.24e-43 -4.535e-42 -1.342e-42 1.41601e-40
0002a0 8a 6e 00 00 f0 16 00 00 aa 14 00 80 78 54 02 00
       3.9654e-41 8.228e-42 -7.413e-42 2.13973e-40
0002b0 96 43 00 80 ca 1a 00 00 7c e7 02 80 5a 2e 00 80
       -2.4245e-41 9.61e-42 -2.66712e-40 -1.6628e-41
0002c0 5e 0d 00 00 d6 24 00 80 6a 14 00 80 68 18 03 00
       4.795e-42 -1.3214e-41 -7.323e-42 2.84262e-40
0002d0 96 03 00 80 e0 03 00 00 54 09 00 00 12 b9 02 80
       -1.286e-42 1.39e-42 3.346e-42 -2.50062e-40
0002e0 b6 64 00 00 24 30 00 00 50 18 00 00 58 0a 01 00
       3.6128e-41 1.727e-41 8.722e-42 9.5546e-41
0002f0 b6 d4 01 00 d0 0f 00 00 5a 10 00 80 c0 1b 00 80
       1.68142e-40 5.672e-42 -5.866e-42 -9.955e-42
000300 4a 3d 00 80 14 07 00 00 40 37 00 80 be 10 00 80
       -2.1986e-41 2.539e-42 -1.982e-41 -6.006e-42
000310 06 46 00 00 12 2c 00 80 60 0c 00 00 b0 10 00 80
       2.512e-41 -1.581e-41 4.44e-42 -5.986e-42
000320 f6 40 00 80 aa 48 00 80 f2 18 00 00 2a 75 00 00
       -2.3304e-41 -2.6067e-41 8.949e-42 4.203e-41
000330 0e 47 00 00 c8 4b 00 00 86 26 00 80 d8 1b 00 80
       2.549e-41 2.7185e-41 -1.382e-41 -9.988e-42
000340 e6 28 00 00 74 2d 00 00 50 17 00 00 f4 00 00 80
       1.4672e-41 1.6306e-41 8.363e-42 -3.42e-43
000350 02 07 00 80 d6 18 00 80 d4 26 00 80 a0 67 00 80
       -2.514e-42 -8.91e-42 -1.3929e-41 -3.7174e-41
000360 62 43 00 80 94 32 00 00 52 20 00 00 14 0e 00 00
       -2.4172e-41 1.8144e-41 1.1594e-41 5.05e-42
000370 20 40 00 00 8e 2d 00 00 56 4c 00 80 86 06 00 00
       2.3004e-41 1.6342e-41 -2.7384e-41 2.34e-42
000380 04 6c 00 80 ec 14 00 00 60 0f 00 80 c0 37 00 80
       -3.8749e-41 7.505e-42 -5.516e-42 -2e-41
000390 64 5e 00 80 36 03 00 80 cc 10 00 80 ac 01 00 00
       -3.3861e-41 -1.152e-42 -6.026e-42 6e-43
0003a0 72 39 00 80 fe 15 00 80 88 8d 00 00 f6 5b 00 00
       -2.0607e-41 -7.89e-42 5.0772e-41 3.299e-41
0003b0 cc 34 00 00 c8 9b 00 00 c0 33 00 80 8a 45 00 00
       1.894e-41 5.5884e-41 -1.8564e-41 2.4946e-41
0003c0 6a 6b 00 80 e8 46 00 00 5c 26 00 00 e2 1f 00 00
       -3.8533e-41 2.5436e-41 1.3761e-41 1.1437e-41
0003d0 8a 08 00 00 30 23 00 00 2e ae 00 80 6e 42 00 00
       3.063e-42 1.2623e-41 -6.2484e-41 2.383e-41
0003e0 e6 83 00 80 da 2a 00 00 32 3b 00 80 e8 22 00 00
       -4.7316e-41 1.5372e-41 -2.1235e-41 1.2522e-41
0003f0 8a 1a 00 00 e4 7e 00 80 c6 65 00 80 46 67 00 00
       9.52e-42 -4.552e-41 -3.651e-41 3.7048e-41

EmbedUpdates.update.fc3.bias f4 [32]
000000 7c ef 00 80 4c b7 84 be 5c 2e 0b 80 e6 81 01 80
       -8.5911e-41 -0.25921094 -1.026821e-39 -1.38434e-40
000010 aa c2 0f 80 32 98 00 80 e4 14 1f 80 d0 11 16 80
       -1.447365e-39 -5.4597e-41 -2.854395e-39 -2.026771e-39
000020 fc 86 ec 80 f3 35 1c bb c0 f1 cf 3d 76 8b 00 80
       -2.17216e-38 -0.0023835867 0.10153532 -5.0029e-41
000030 9a 77 23 3c b0 10 5c 80 aa fc 00 80 b0 a8 72 80
       0.009977246 -8.454852e-39 -9.0639e-41 -1.052976e-38
000040 58 1b 53 bd 86 d5 1a 80 40 d6 08 80 bc 73 83 3d
       -0.05153975 -2.46432e-39 -8.11542e-40 0.06418559
000050 d6 92 24 bc 34 6b 00 80 1c a3 00 80 a6 cb 04 80
       -0.010044774 -3.8457e-41 -5.8513e-41 -4.40397e-40
000060 e5 80 18 be a0 c2 00 80 4a 0a 01 80 c5 b0 9b 82
       -0.1489292 -6.9818e-41 -9.5527e-41 -2.2876664e-37
000070 f0 5e 08 80 ec 4a 03 80 18 3c d3 bb 1b f3 b4 81
       -7.68741e-40 -3.02383e-40 -0.0064463727 -6.6470396e-38

EmbedUpdates.update.fc3_2.weight f4 [32, 64]
000000 6c 58 00 80 2a 23 82 3e 38 9e 03 80 04 32 00 00
       -3.172e-41 0.25417453 -3.32265e-40 1.7942e-41
000010 62 a5 00 00 28 11 00 00 8a cd 02 80 fc ac 03 00
       5.9328e-41 6.155e-42 -2.57405e-40 3.37562e-40
000020 2e 72 1f 00 02 d0 bf bd 23 82 d6 3e 2e 34 00 00
       2.88786e-39 -0.09365846 0.4189616 1.8719e-41
000030 14 9e 8e 3d 18 b1 11 00 86 0e 00 00 c8 43 02 00
       0.06963745 1.624733e-39 5.21e-42 2.07986e-40
000040 3e dc 50 3e d8 c2 02 00 cc ac 00 00 b6 67 23 be
       0.20396516 2.53568e-40 6.1988e-41 -0.15957531
000050 9d ea 60 3f ae 1b 00 80 84 2e 00 00 c4 8d 01 00
       0.8785799 -9.93e-42 1.6687e-41 1.42691e-40
000060 f3 d5 c9 bd 8c 0e 00 00 8e 5b 00 80 4e 64 3f 00
       -0.09855261 5.218e-42 -3.2844e-41 5.821619e-39
000070 e6 7f 00 00 52 5c 00 00 15 3c 60 3e 00 aa 64 00
       4.5881e-41 3.3118e-41 0.2189792 9.244534e-39
000080 ef 6d 04 bb 1c 12 c4 bd 1f 29 44 be 2d 9e a3 3c
       -0.0020207127 -0.095737666 -0.19156311 0.019972885
000090 c3 97 3e bc 39 c2 94 bc 45 4c 47 3c 9b ae 8a 3d
       -0.0116328625 -0.018159019 0.01216418 0.067715846
0000a0 49 af a7 bc 3f 94 56 3c 11 df 55 3b c8 ac 40 bd
       -0.020469325 0.013096868 0.0032634179 -0.047039777
0000b0 34 86 2e 3c 18 c6 1e 3c 37 77 23 3e 19 2e 20 3c
       0.010652114 0.009690784 0.15963446 0.009776616
0000c0 ad 96 30 3c 1d e7 d8 3c b3 e3 68 3c 46 07 92 be
       0.010778111 0.02647739 0.014214444 -0.28521174
0000d0 8d 13 0b 3e c3 a5 5d bc 23 17 d9 bb fd 7c b8 3e
       0.13581677 -0.01352829 -0.0066250726 0.36032858
0000e0 ad 27 d0 ba 2d a0 00 be 5a 25 53 3c be 67 9a 3d
       -0.0015880965 -0.12561102 0.012887323 0.075393185
0000f0 d3 a4 a1 bd 89 e0 26 bb 23 22 42 bc 27 f6 ec 3a
       -0.07892766 -0.0025463423 -0.011848959 0.001807873
000100 80 7b 00 80 09 94 59 bc a4 18 00 00 50 46 00 00
       -4.4303e-41 -0.013279923 8.84e-42 2.5223e-41
000110 a6 62 00 00 76 50 00 80 8c ac 00 00 68 4a 00 00
       3.5388e-41 -2.8864e-41 6.1898e-41 2.6692e-41
000120 a4 a7 01 00 98 cb 88 3c eb 20 09 bc b8 02 00 80
       1.51974e-40 0.016698644 -0.008369665 -9.75e-43
000130 49 58 83 3c ea a0 00 00 e8 a9 00 80 5e d9 01 00
       0.016033309 5.7725e-41 -6.0951e-41 1.69812e-40
000140 fb 5e 8e ba dc 6c 00 00 c2 9b 00 00 e5 60 39 bb
       -0.0010862047 3.9051e-41 5.5875e-41 -0.0028286513
000150 e7 19 2a 3c a6 7d 00 80 cc 00 00 80 12 a8 00 00
       0.010382152 -4.5074e-41 -2.86e-43 6.0292e-41
000160 49 37 91 3a 98 7b 00 00 0e 0b 00 80 e4 19 05 00
       0.0011079098 4.4337e-41 -3.966e-42 4.68465e-40
000170 86 41 00 00 4c 08 00 00 d9 4e da bb da 3a 05 00
       2.3505e-41 2.976e-42 -0.0066622314 4.8029e-40
000180 0c c8 df 3b 99 c9 e9 ba cc 41 01 3c 6c 71 36 3b
       0.0068292674 -0.001783657 0.007889222 0.00278386
000190 9f 16 67 3b 8e 07 20 bc 6c 82 f7 3b e2 f0 83 bb
       0.0035261286 -0.009767426 0.0075533893 -0.004026518
0001a0 d4 e4 00 bc c6 4c d1 3a 3b 39 be bb 42 1a 87 bb
       -0.007867057 0.0015968315 -0.0058051622 -0.004123003
0001b0 20 84 fb b9 97 88 d7 bb a2 74 88 bc f3 bc 87 ba
       -0.00047972891 -0.006577562 -0.016657177 -0.0010355994
0001c0 bd 26 18 3c 1d fe 08 3c eb bd fb 3b d0 bf 46 3c
       0.00928658 0.008361367 0.007682552 0.012130693
0001d0 10 03 1b 3c 04 3a 05 bc 37 1b 7c 3b 66 33 4b bc
       0.009461179 -0.008131508 0.003846837 -0.012402391
0001e0 79 d8 83 3b a7 c4 80 b8 e1 fa 0e 3c b8 9a 3d 3b
       0.0040236083 -6.140145e-05 0.008726806 0.002893133
0001f0 9f a7 0a bb 55 fb b8 3b c8 18 d7 3b 6b be ae bb
       -0.002115704 0.0056451955 0.0065642335 -0.005332758
000200 2e 45 00 80 5f f0 b7 bb a0 44 00 80 24 10 00 00
       -2.4817e-41 -0.0056133713 -2.4618e-41 5.79e-42
000210 7e 02 00 00 62 9b 00 80 9a 08 00 80 be 04 00 00
       8.94e-43 -5.5741e-41 -3.086e-42 1.701e-42
000220 6a 64 03 00 27 5f 82 bc 89 8b d8 3b 20 80 00 00
       3.11528e-40 -0.015914513 0.0066084308 4.5963e-41
000230 19 b9 09 3c 92 10 01 80 ac 9a 00 00 e2 65 00 00
       0.008405947 -9.778e-41 5.5486e-41 3.6549e-41
000240 5c 21 a0 bb e4 22 00 80 3c 8f 00 80 be 63 fd bb
       -0.0048867892 -1.2516e-41 -5.1383e-41 -0.0077328375
000250 55 80 06 bc 52 87 00 80 fe 0b 00 80 3c 76 00 80
       -0.008209308 -4.8544e-41 -4.302e-42 -4.2415e-41
000260 6c a6 69 bc d0 1f 00 80 70 31 00 80 f2 d4 00 80
       -0.0142608695 -1.1412e-41 -1.7735e-41 -7.639e-41
000270 64 23 00 80 bc 6c 00 00 8a 15 19 bc 90 eb 03 00
       -1.2696e-41 3.9007e-41 -0.009343514 3.6001e-40
000280 25 cb 01 bc 69 6e f8 3b dd 39 98 bb bc 78 85 ba
       -0.007921969 0.0075815213 -0.0046455697 -0.0010183076
000290 55 67 18 ba 73 c3 ea 3b 44 88 e4 bb b2 02 0e bb
       -0.00058137375 0.0071644126 -0.006974252 -0.0021669087
0002a0 e3 9d af 3b 92 a5 96 ba 75 c6 26 3b 79 d1 d4 3a
       0.0053593977 -0.0011493436 0.002544788 0.0016236744
0002b0 01 c8 e3 ba b9 8f 1d 3c cb 1b a1 b9 28 50 d9 ba
       -0.0017378331 0.009616786 -0.0003072902 -0.0016579675
0002c0 b6 f4 f3 bb a1 fe 97 bb f8 d8 b5 bb b2 5c 20 bb
       -0.0074449433 -0.0046385084 -0.0055495463 -0.0024469313
0002d0 14 3b 92 3b d0 28 af 3b 5c 42 d1 ba 71 50 38 3c
       0.004462609 0.0053454414 -0.0015965211 0.0112496475
0002e0 48 03 9c 3a b6 f6 ff bb ec e4 cb bb 2c 0c a3 3b
       0.0011902833 -0.0078113927 -0.006222358 0.0049758162
0002f0 89 8a 18 3c df c1 07 bb a5 05 39 bc f7 11 94 3a
       0.009310373 -0.0020714921 -0.01129285 0.0011296858
000300 3c 54 00 80 d7 50 47 3c 98 09 00 00 18 2d 00 80
       -3.0218e-41 0.01216527 3.442e-42 -1.6177e-41
000310 1c a7 00 80 0e 9e 00 00 5a 4e 00 80 ba 29 00 00
       -5.9948e-41 5.67e-41 -2.8107e-41 1.4969e-41
000320 28 2f 02 00 ba d3 e0 bc 70 ff f9 3b ea 2a 00 00
       2.00587e-40 -0.02744471 0.0076293275 1.5395e-41
000330 3b d3 48 bc 9a 9a 00 80 ae 7f 00 00 e0 70 00 00
       -0.0122573925 -5.546e-41 4.5803e-41 4.0492e-41
000340 33 9a 00 3c aa a5 00 00 ba 14 00 80 60 56 07 3c
       0.007849264 5.9429e-41 -7.435e-42 0.0082603395
000350 98 12 42 bc 54 6d 00 00 24 02 00 00 06 ac 00 80
       -0.011845253 3.922e-41 7.68e-43 -6.171e-41
000360 48 cb 9a 3b 80 43 00 80 4a 5a 00 00 dc a0 0c 80
       0.00472394 -2.4214e-41 3.239e-41 -1.159731e-39
000370 92 4c 00 80 4a 69 00 80 84 72 15 3c cc eb 03 00
       -2.7468e-41 -3.777e-41 0.009121541 3.60094e-40
000380 47 ef 32 bc 4b c9 90 bb 5f 78 35 bc 8d ea e4 ba
       -0.010921306 -0.0044185272 -0.011076062 -0.0017464921
000390 b8 87 e2 ba cb 7a e6 3b a1 9b 3d bc ef ed 10 bb
       -0.0017282879 0.007033681 -0.011572749 -0.0022114476
0003a0 57 1d 9d 3b 04 49 1c 39 04 f3 fa 3b f8 b5 38 bb
       0.0047947573 0.0001490452 0.0076583643 -0.0028184634
0003b0 20 a2 be 3a ff 75 b1 3b 9e 25 24 3c ca 01 e7 3a
       0.0014544167 0.0054156776 0.010018734 0.0017624435
0003c0 ad 44 33 bc c2 39 79 bb d9 de 40 bc 87 30 ef bb
       -0.010941667 -0.003802881 -0.011771881 -0.007299486
0003d0 be 91 ed ba ec 62 38 3b dd 75 4e bb f4 8f 8b 3c
       -0.00181251 0.0028135134 -0.0031503357 0.017036416
0003e0 86 8d 56 bb c9 08 a0 ba f5 c9 32 bc a8 66 a3 ba
       -0.0032738163 -0.001220965 -0.010912408 -0.0012466507
0003f0 22 14 ab 38 bf af a1 bb f1 3e d6 bb 0a 64 a7 3b
       8.1576654e-05 -0.0049342806 -0.006538265 0.005108361

EmbedUpdates.update.fc3_2.bias f4 [32]
000000 47 1c 9b be 77 d6 dc 3a e2 c4 f0 39 ac 82 ee bb
       -0.3029501 0.0016848583 0.00045923056 -0.007278761
000010 7e c8 36 3b 37 0e ab 3b 0b 56 24 bb 34 de d8 b9
       0.0027890499 0.0052202004 -0.00250757 -0.00041364285
000020 87 ac 07 3c 04 14 2f 3b 2e 18 5a 3a 00 40 32 3e
       0.00828088 0.002671481 0.0008319643 0.17407227
000030 ed a2 88 be 02 ed 2e 3b b9 aa 8b 3d ca f6 93 bd
       -0.26686803 0.002669156 0.06819672 -0.07224806
000040 9e 00 0c bb b0 74 0e 3c 21 30 b1 ba e4 af b8 3a
       -0.0021362673 0.008694813 -0.0013518372 0.0014090505
000050 9a 89 b3 3b 31 aa 18 3b d6 a5 12 3b db 44 eb b9
       0.00547905 0.0023294801 0.0022376678 -0.00044873994
000060 59 32 b3 3a f6 2b dd ba ac 63 83 bd c9 51 ee 3b
       0.0013671621 -0.0016874063 -0.06415495 0.007272933
000070 f8 37 a6 39 27 0f 3e 3e 4f 20 86 3e 09 27 d2 3a
       0.00031703687 0.18560468 0.26196525 0.0016033362

EmbedUpdates.update.fc4.weight f4 [32, 64]
000000 32 a9 00 00 d4 cc 00 00 20 93 00 80 2c 9b 00 00
       6.0696e-41 7.3478e-41 -5.2779e-41 5.5665e-41
000010 cc 7f 00 00 58 9d 00 80 e6 25 00 80 0e 7d 00 00
       4.5845e-41 -5.6444e-41 -1.3595e-41 4.4861e-41
000020 48 92 00 80 b0 61 00 80 f4 29 00 80 40 71 00 00
       -5.2476e-41 -3.5044e-41 -1.505e-41 4.0626e-41
000030 1c 7d 00 80 ee a0 00 80 fe 11 00 80 f8 32 00 00
       -4.4881e-41 -5.773e-41 -6.454e-42 1.8284e-41
000040 5c 83 00 80 3a 6a 00 00 6e 23 00 80 c4 6e 00 00
       -4.7123e-41 3.8107e-41 -1.271e-41 3.9735e-41
000050 3c a5 00 80 70 58 00 80 a4 1b 00 80 3a fd 00 00
       -5.9275e-41 -3.1725e-41 -9.916e-42 9.084e-41
000060 8a 8a 00 00 0c 31 00 80 fc 9c 00 00 94 88 00 80
       4.9698e-41 -1.7595e-41 5.6315e-41 -4.8995e-41
000070 72 6a 00 80 ca 6f 00 00 18 a0 00 00 82 11 00 80
       -3.8185e-41 4.0102e-41 5.7431e-41 -6.28e-42
000080 5c c8 00 00 92 25 00 80 52 7b 00 00 60 12 00 80
       7.1875e-41 -1.3478e-41 4.4239e-41 -6.592e-42
000090 c0 61 00 80 a8 9d 00 80 68 4b 00 00 b4 8b 00 00
       -3.5066e-41 -5.6556e-41 2.705e-41 5.0116e-41
0000a0 42 aa 00 80 4e 21 00 00 de 8a 00 80 6c 57 00 00
       -6.1077e-41 1.1947e-41 -4.9816e-41 3.1361e-41
0000b0 f2 07 01 80 42 42 00 00 1a 44 00 00 c2 a8 00 00
       -9.4686e-41 2.3769e-41 2.443e-41 6.0539e-41
0000c0 bc 53 00 80 e2 a5 00 80 a4 7d 00 80 26 a1 00 80
       -3.0038e-41 -5.9508e-41 -4.5071e-41 -5.7809e-41
0000d0 12 8c 00 80 14 29 00 80 40 9d 00 00 b8 11 00 00
       -5.0248e-41 -1.4736e-41 5.641e-41 6.356e-42
0000e0 ec a0 00 00 7c 55 00 00 c0 10 00 80 02 0b 00 00
       5.7728e-41 3.0666e-41 -6.009e-42 3.949e-42
0000f0 6c 8e 00 80 60 23 00 80 b0 4a 01 00 a8 af 00 00
       -5.1091e-41 -1.269e-41 1.18628e-40 6.3014e-41
000100 f6 1e 00 80 f4 50 00 00 ba 5f 00 80 a8 0c 00 80
       -1.1107e-41 2.904e-41 -3.434e-41 -4.54e-42
000110 50 75 00 80 5a 63 00 80 c0 a9 00 00 d6 7a 00 80
       -4.2084e-41 -3.564e-41 6.0895e-41 -4.4065e-41
000120 c4 52 00 80 32 59 00 00 8e 49 00 80 a4 9e 00 80
       -2.9691e-41 3.1997e-41 -2.6386e-41 -5.691e-41
000130 b2 22 00 80 9a 30 00 00 3c a8 00 80 fa 15 00 80
       -1.2446e-41 1.7435e-41 -6.0351e-41 -7.884e-42
000140 16 79 00 00 a8 19 00 80 30 9b 00 80 d0 4d 00 80
       4.3437e-41 -9.204e-42 -5.5671e-41 -2.7914e-41
000150 4a a7 00 00 3c 9f 00 80 18 59 00 00 a0 18 00 00
       6.0012e-41 -5.7123e-41 3.1961e-41 8.834e-42
000160 e6 0e 00 80 d4 2a 00 00 de aa 00 80 e0 a3 00 80
       -5.345e-42 1.5364e-41 -6.1296e-41 -5.8787e-41
000170 6a 79 00 00 34 2d 00 00 64 4b 00 00 88 a5 00 80
       4.3555e-41 1.6216e-41 2.7045e-41 -5.9381e-41
000180 1a 0f 00 80 14 67 00 00 9e 12 00 00 9a 84 00 80
       -5.417e-42 3.6977e-41 6.679e-42 -4.7568e-41
000190 90 0a 00 00 00 4c 00 00 e6 3a 00 00 60 6a 00 00
       3.789e-42 2.7264e-41 2.1129e-41 3.816e-41
0001a0 9c 98 00 80 74 25 00 80 2e 41 00 00 08 0a 00 80
       -5.4746e-41 -1.3436e-41 2.3382e-41 -3.599e-42
0001b0 9e 00 00 00 ee 3f 00 00 cc 0f 00 00 a6 03 00 80
       2.21e-43 2.2934e-41 5.667e-42 -1.309e-42
0001c0 e8 97 00 80 50 11 00 80 fa 5b 00 80 b8 72 00 00
       -5.4494e-41 -6.21e-42 -3.2995e-41 4.1153e-41
0001d0 c6 5b 00 00 fa 69 00 00 58 27 00 00 d2 3d 00 80
       3.2922e-41 3.8017e-41 1.4114e-41 -2.2177e-41
0001e0 52 9d 00 00 8e 28 00 00 b4 3b 00 80 22 04 00 80
       5.6436e-41 1.4548e-41 -2.1417e-41 -1.483e-42
0001f0 aa 12 00 80 f8 2e 00 80 6c 0c 00 00 4c 2a 00 80
       -6.695e-42 -1.6849e-41 4.456e-42 -1.5173e-41
000200 78 61 00 00 1a 78 00 00 58 65 00 80 3e 00 00 00
       3.4965e-41 4.3084e-41 -3.6355e-41 8.7e-44
000210 14 50 00 80 50 4a 00 00 32 62 00 00 ba 59 00 80
       -2.8727e-41 2.6658e-41 3.5226e-41 -3.2188e-41
000220 ce 26 00 80 34 14 00 80 3c a1 00 80 f2 0d 00 80
       -1.392e-41 -7.248e-42 -5.784e-41 -5.003e-42
000230 4a 5c 00 80 46 5a 00 80 ee a0 00 80 b6 1c 00 80
       -3.3107e-41 -3.2384e-41 -5.773e-41 -1.03e-41
000240 06 76 00 00 ce 79 00 00 98 6a 00 80 be 5f 00 00
       4.2339e-41 4.3695e-41 -3.8239e-41 3.4346e-41
000250 56 6b 00 00 2c 78 00 00 8e 87 00 00 2a 8c 00 00
       3.8505e-41 4.311e-41 4.8628e-41 5.0281e-41
000260 8e 0a 00 00 24 a0 00 80 3e 03 00 00 8e 2f 00 80
       3.786e-42 -5.7448e-41 1.163e-42 -1.706e-41
000270 ec a2 00 80 a2 57 00 00 be 3c 00 00 ae 97 00 00
       -5.8445e-41 3.1437e-41 2.179e-41 5.4412e-41
000280 3a 00 00 00 0e 06 00 80 d0 24 00 80 4a 31 00 00
       8.1e-44 -2.172e-42 -1.3206e-41 1.7682e-41
000290 ae 66 00 80 2a a6 00 00 fc 7f 00 00 72 22 00 80
       -3.6835e-41 5.9608e-41 4.5912e-41 -1.2357e-41
0002a0 a8 a0 00 00 62 8d 00 00 fe ac 00 80 9e 96 00 80
       5.7633e-41 5.0719e-41 -6.2058e-41 -5.4031e-41
0002b0 16 2e 00 00 76 5a 00 80 ee a9 00 00 3c 2c 00 00
       1.6533e-41 -3.2451e-41 6.0959e-41 1.5868e-41
0002c0 cc 80 00 00 b4 af 00 00 b6 70 00 80 6c 87 00 00
       4.6204e-41 6.303e-41 -4.0433e-41 4.858e-41
0002d0 2c a5 00 00 a8 ac 00 00 86 2f 00 80 00 2c 00 00
       5.9253e-41 6.1937e-41 -1.7048e-41 1.5784e-41
0002e0 b0 03 00 00 90 21 00 80 c0 50 00 80 d2 11 00 80
       1.323e-42 -1.204e-41 -2.8968e-41 -6.393e-42
0002f0 b4 80 00 80 2c 8a 00 80 bc 34 00 00 a8 72 00 80
       -4.617e-41 -4.9567e-41 1.8918e-41 -4.1131e-41
000300 8f 40 ef 3d e8 d9 25 3f e0 04 ac 3e 88 2d a7 ba
       0.116822354 0.64785624 0.3359747 -0.0012754658
000310 f9 41 56 3a 3a 1f 54 3c dc 8e c9 3a b0 f1 5d 3a
       0.0008173283 0.012946898 0.0015377658 0.0008466495
000320 91 78 c4 3a c5 26 eb ba 2d db 0f 3e b4 ff fa 3a
       0.0014989545 -0.0017940631 0.14048453 0.0019149692
000330 cc ce 61 3a 3e 01 48 bc 5b 78 e6 3a 85 21 51 3a
       0.0008613884 -0.012207327 0.0017583476 0.0007977712
000340 41 10 21 ba 35 6b c5 ba 2a 07 28 bb d6 fd a6 ba
       -0.00061440846 -0.0015061857 -0.0025639036 -0.0012740444
000350 11 4b 96 3a b8 be 20 3b ca 36 a6 bb f9 e0 92 3e
       0.0011466463 0.002452774 -0.0050724493 0.28687266
000360 5e dd d1 3e e4 a5 c7 ba c6 ee cb ba 64 1a f0 ba
       0.40989202 -0.0015231934 -0.0015558831 -0.0018318412
000370 66 37 0a ba dc 96 b7 ba 48 cb fd bd 15 79 87 3b
       -0.0005272537 -0.0014006752 -0.123922884 0.004134307
000380 ce b4 b0 bc c0 d7 11 3b f9 0f 71 3b 48 02 15 3a
       -0.02157059 0.002225384 0.0036783202 0.0005684239
000390 07 81 b6 3a 2c 37 1f 39 e8 c1 43 b9 d7 a7 df 39
       0.0013923951 0.00015183975 -0.00018668885 0.00042658925
0003a0 78 a4 33 b9 e9 37 11 3b d3 ee 2f bc 2a 07 3d be
       -0.0001713204 0.002215857 -0.0107380925 -0.18459764
0003b0 74 31 49 3e 71 90 30 3b 5f 81 13 bf 2e 58 c5 be
       0.19647771 0.0026941563 -0.5761928 -0.38543838
0003c0 99 94 00 3c 36 78 c4 b9 c5 3e 0d 3c fc 5b 95 3b
       0.007847928 -0.00037473597 0.008620922 0.0045580845
0003d0 b1 56 90 b9 be 4c 14 3b 06 ae 9a 3b 57 23 8d 3c
       -0.0002753041 0.002262875 0.0047204522 0.017228765
0003e0 de ce 61 3e 62 2e 9b bb d5 cf 68 be 48 f0 8c 38
       0.2205157 -0.004735754 -0.22735532 6.720476e-05
0003f0 c7 24 72 3b 3b 93 c2 bd fb cc 86 3d f6 59 03 3b
       0.003694819 -0.09500738 0.06582066 0.0020042635

EmbedUpdates.update.fc4.bias f4 [32]
000000 7c a6 03 80 8a a1 00 80 ae 98 00 80 db 20 19 3b
       -3.3523e-40 -5.7949e-41 -5.4771e-41 0.002336553
000010 62 45 01 80 62 4e b6 80 67 c3 9e 3e 9e 90 00 80
       -1.16725e-40 -1.6742179e-38 0.31008455 -5.1879e-41
000020 38 9b 05 80 50 4c 00 80 eb 5f 8c 3d fe 1d 08 3e
       -5.1486e-40 -2.7376e-41 0.068542324 0.13292691
000030 bc 31 8e 84 07 10 e8 3d c9 07 e1 3d ac 0d 02 80
       -3.3429713e-36 0.11331182 0.10987813 -1.88576e-40
000040 1a d3 ee be a2 87 47 3d 02 71 00 80 24 f6 02 80
       -0.46645433 0.048713334 -4.054e-41 -2.7197e-40
000050 99 21 f2 3d 63 67 23 3e 02 c6 4b bc a7 45 b4 3d
       0.118228145 0.15957408 -0.012437345 0.08802348
000060 b0 5c 00 80 9d f2 90 3d 14 ad 00 80 6a 84 01 80
       -3.325e-41 0.07077525 -6.2089e-41 -1.39337e-40
000070 56 5b 00 80 cc 60 00 80 d4 46 03 8e 38 1b 81 bd
       -3.2765e-41 -3.4724e-41 -1.61811e-30 -0.0630402
